hand-gesture-recognition-mediapipe-main/model/keypoint_classifier/keypoint_classifier.tflite (tflite, 13088 bytes, 8 tensors)

sequential/dense/BiasAdd/ReadVariableOp f4 [64]
000000 86 0a 39 bd 81 79 d0 bb 88 0a ef 3d 3f 7d f9 bd
       -0.04517605 -0.0063621406 0.116719306 -0.12182092
000010 85 5f 21 be 81 a7 2d bd d6 1e 2d be 64 d0 88 bd
       -0.15759094 -0.042396072 -0.16906294 -0.06680372
000020 d5 45 07 be c8 2c d2 bd a8 13 38 bc 2e 5d 8f bd
       -0.13210233 -0.102624476 -0.011235155 -0.070001945
000030 58 5e 10 be ec 1f 29 be 16 e8 2d be 6e 21 83 bd
       -0.1409849 -0.16516083 -0.16983065 -0.064028606
000040 c7 d5 d6 bd 1a 63 a1 bd 73 50 d5 bd 29 d3 90 3c
       -0.104899935 -0.0788023 -0.10415735 0.017678814
000050 03 4a da 3c 3b 30 c7 bd d5 49 9d ba 9f 52 78 bd
       0.02664662 -0.09725996 -0.0012000153 -0.06062567
000060 bf 97 06 bd c3 83 d8 3c 0a 81 83 bc 8d 60 63 be
       -0.03285956 0.026430016 -0.016052742 -0.222048
000070 ab ca 82 3d a6 85 bf bd 73 1c fe 3c f3 99 3c be
       0.06386312 -0.09351663 0.031019425 -0.18418102
000080 c8 e9 e4 3c 83 8f f9 bd c4 85 91 bc b7 fe 10 be
       0.027943507 -0.12185576 -0.01776398 -0.14159666
000090 ab 3e 26 be 48 e2 02 bd 8e bd bc bd 1c 9e b7 bc
       -0.16234843 -0.03195408 -0.09215842 -0.02241426
0000a0 8c a8 a3 bd c8 53 15 be 20 e9 4d 3d 58 7f 35 bd
       -0.07991132 -0.14582741 0.050271153 -0.044310898
0000b0 9c f5 ed bd 96 fd b3 3d fc e4 d7 3d 91 af 4f 3d
       -0.11619112 0.08788602 0.10541722 0.050704543
0000c0 e3 6e 9a bd 78 34 2d bd 3a 1b 10 be ac f5 2c be
       -0.07540681 -0.042286366 -0.14072886 -0.16890591
0000d0 1e 11 e4 3d 5d 47 7c bd bb 0c ab bd 13 5a 0d bc
       0.11136077 -0.061591495 -0.083520375 -0.008627432
0000e0 83 6e 88 3d 4e 8f f2 bd e1 c1 5c 3b ac 70 03 be
       0.066617034 -0.118437394 0.0033684897 -0.1283595
0000f0 67 69 76 bd 3a 0e 32 bd 71 9f c2 bd e8 42 be bc
       -0.060159113 -0.0434706 -0.09503067 -0.023225263

sequential/batch_normalization_2/batchnorm/mul_1;sequential/batch_normalization_2/batchnorm/add_1;sequential/dense_3/MatMul;sequential/dense_3/BiasAdd f4 [36, 16]
000000 e2 9e 6a c0 9f b3 7e 3f 5c 3d 1c bf 17 e7 bf bf
       -3.6659474 0.9949283 -0.61031127 -1.4992398
000010 56 78 1b c0 4c 49 38 c0 75 cb bc bf 86 83 f6 bf
       -2.4292197 -2.8794737 -1.474959 -1.9258888
000020 9f a7 73 40 e6 a2 d5 be 83 01 76 40 60 bd 71 c0
       3.8071058 -0.41725844 3.8438423 -3.7771835
000030 bc 4b a2 bf 97 38 9c 40 69 f9 e7 3e f1 dc 84 be
       -1.2679362 4.881908 0.45307472 -0.25949815
000040 81 27 7d 3f 8e 96 ed 3f c1 3d 84 bf e8 85 27 bf
       0.98888403 1.8561571 -1.0331346 -0.654387
000050 06 bb f2 bf 46 1a 4b 40 61 6c 1f c0 a8 1c e3 3e
       -1.8963325 3.1734786 -2.49099 0.443578
000060 5e 3b 7a c0 fc 39 73 c0 87 e0 81 c0 70 aa 10 40
       -3.9098735 -3.800414 -4.058658 2.2604027
000070 5d 6a 5e 40 ef 3d 79 bf a9 17 58 3e 49 15 63 40
       3.475242 -0.9736013 0.21102776 3.5481741
000080 c0 49 13 c0 b6 90 7f 3f 51 7d 96 3f 5e 7d 5d 40
       -2.3013763 0.99830186 1.1756994 3.4607768
000090 42 e8 3c c0 2a 5a 22 40 2c 41 43 c0 a6 72 35 3e
       -2.951676 2.5367532 -3.0508528 0.17719516
0000a0 14 08 34 3e cf c6 5c 40 4d d7 58 c0 ed 56 89 c0
       0.17581207 3.4496343 -3.388141 -4.291861
0000b0 9f 56 30 bf 82 da 42 c0 9f 9c 11 bf ca c8 1c c0
       -0.68882173 -3.0445867 -0.5687961 -2.4497552
0000c0 00 3d 2b c0 e3 9c 0f c0 b4 c1 4e c0 07 55 24 c0
       -2.6755981 -2.2439506 -3.2305727 -2.5676897
0000d0 0f 8c 3d c0 28 43 7f 40 10 c5 03 3f 8e 93 c6 bf
       -2.9616735 3.988474 0.5147257 -1.551378
0000e0 12 b3 3d be e5 21 95 bf 5b ce 6e bc 81 48 2c 40
       -0.18525341 -1.1650969 -0.014575566 2.6919253
0000f0 fc 77 84 c0 76 da 4f bf 2b 69 27 40 2c 05 65 c0
       -4.1396465 -0.8119272 2.615794 -3.5784407
000100 c9 44 26 be 11 fb 2c be 33 d4 14 40 fe f5 fa be
       -0.16237177 -0.16892649 2.3254516 -0.49015802
000110 8e 38 5c c0 67 a4 46 40 6c d0 70 3f 1c 2a 41 bd
       -3.4409518 3.1037843 0.94068027 -0.0471593
000120 08 10 03 be 86 a7 01 c0 34 f8 18 c0 3b cc 9f bf
       -0.12799084 -2.0258498 -2.390149 -1.2484201
000130 c5 0d 13 c0 d2 f7 9a 40 83 ff b1 3f 9e f5 38 40
       -2.2977154 4.8427515 1.3906101 2.8899913
000140 ef c4 54 40 1a 58 56 40 09 26 84 3f b2 02 18 bf
       3.3245199 3.3491273 1.0324107 -0.5937911
000150 48 51 3e c0 4a c1 19 40 06 58 a7 bf c7 97 80 c0
       -2.973711 2.4024224 -1.3073738 -4.0185275
000160 71 c8 64 bf 31 c6 a2 bf 96 30 52 c0 86 98 11 40
       -0.8936835 -1.2716733 -3.2842155 2.2749343
000170 70 38 36 40 c6 d5 c3 bf 1c 42 98 bf ba 0c 22 40
       2.8471947 -1.5299613 -1.1895175 2.5320268
000180 b3 25 49 3e 93 00 4c c0 8a bc 89 be d2 97 c7 bf
       0.19643287 -3.187535 -0.26901656 -1.5593207
000190 ca 67 02 40 ad b4 1d c0 7c 92 32 40 a3 34 7d be
       2.0375848 -2.4641526 2.7901907 -0.2472711
0001a0 cb e4 ef bf ef 6d 3b 40 e3 b7 7f 40 e0 ee 1b c0
       -1.8741697 2.9285848 3.9955986 -2.4364548
0001b0 8c 46 23 c0 88 55 84 c0 b6 0e 08 c0 58 c1 fd 3f
       -2.5511808 -4.135441 -2.125898 1.9824629
0001c0 89 1f f5 3e 26 6d 6b c0 5a a7 ad bf d4 69 38 40
       0.47875622 -3.678537 -1.3566697 2.8814592
0001d0 46 1b d8 3f fd b3 00 c0 45 53 75 40 12 60 15 40
       1.6883323 -2.0109856 3.8332074 2.3339887
0001e0 f5 2f 12 c0 9e 03 e4 3f 87 38 ee 3f 02 96 71 c0
       -2.284177 1.7813604 1.8611001 -3.7747808
0001f0 39 71 d6 3d a0 6a 6c c0 2c ec 11 c0 15 29 56 c0
       0.10470814 -3.6940079 -2.2800398 -3.3462574
000200 6e 65 a9 bf 48 4c 24 3f d5 32 14 40 67 f2 14 c0
       -1.3234079 0.64178896 2.3156025 -2.327295
000210 d0 3f 1c c0 23 61 28 3f 17 3b b8 bf 79 8e a9 bf
       -2.4413948 0.6577322 -1.4393033 -1.3246604
000220 c8 30 6e bf 50 b6 b6 bf ae ef ca bf 5d a5 a5 bf
       -0.93043184 -1.4274387 -1.5854394 -1.294109
000230 11 57 24 40 3d 26 55 bd 0c 04 88 40 d3 3c 56 40
       2.567814 -0.05203842 4.250494 3.3474624
000240 5c e5 d3 bf 86 c0 21 3f 0d a6 43 3f 3f 47 36 bf
       -1.655437 0.6318439 0.7642525 -0.7120246
000250 4b d3 65 3e 7f c4 54 40 ab 8c b1 bf 1e 32 9c 40
       0.22443883 3.3244932 -1.3871053 4.881118
000260 96 10 13 40 75 74 84 be 8b d2 88 c0 20 1e 38 c0
       2.2978873 -0.258701 -4.275701 -2.8768387
000270 a8 d1 5b c0 e4 68 c4 bf 32 e5 03 c0 1c 2f 42 40
       -3.4346714 -1.534451 -2.060864 3.0341253
000280 21 af ab 3f 1d 8c 69 c0 8c f2 14 c0 34 2a 8c 3c
       1.341282 -3.6491768 -2.327304 0.017109968
000290 36 96 96 bf e5 d9 8a c0 1d b5 8c c0 1c 48 84 c0
       -1.1764591 -4.3390985 -4.3971086 -4.1338024
0002a0 3e ec 8c 3f 15 dc 28 c0 a8 52 38 bf 14 d1 1a 40
       1.1009595 -2.6384327 -0.72001123 2.419011
0002b0 ac be b2 3e d6 34 ac c0 71 a6 aa bf 5d 60 80 c0
       0.34911096 -5.3814497 -1.3332044 -4.011763
0002c0 7c bd 5f c0 09 87 39 3f ca d2 02 c0 45 8c f4 be
       -3.4959402 0.7247167 -2.0441155 -0.47763267
0002d0 06 c6 fc be b5 c5 96 c0 e1 7b 01 3f e7 be f6 be
       -0.4936983 -4.711634 0.5057965 -0.48192522
0002e0 a1 85 28 40 82 38 e2 3f 33 17 60 40 57 72 51 40
       2.633156 1.7673495 3.501416 3.2726038
0002f0 b7 9f 4a 40 8e 71 bd bf 04 d3 84 40 fd 7c e5 bf
       3.1659982 -1.4800279 4.1507587 -1.7928768
000300 14 7b 63 40 57 22 22 40 dd 39 e0 3f af 98 96 bf
       3.554387 2.533346 1.7517658 -1.1765345
000310 c8 03 38 bf 5e 13 11 c0 7a be 3c c0 03 49 58 40
       -0.7188077 -2.266807 -2.9491258 3.3794563
000320 7c 65 e3 3f d1 22 fe bf 12 22 0e bf 19 e9 02 3e
       1.7765346 -1.9854375 -0.5552074 0.12784232
000330 57 69 7e c0 ff f1 5a 40 e8 40 a4 3f e9 c4 39 c0
       -3.9751794 3.4210203 1.2832308 -2.9026434
000340 da 75 01 40 a2 56 2c c0 1c 5c d1 bf 62 0c 04 c0
       2.022818 -2.6927876 -1.6356235 -2.0632558
000350 ce 50 3e 40 8d 37 85 bf 92 87 03 3f bc 0a 05 c0
       2.973682 -1.0407578 0.5137874 -2.0787802
000360 8e 77 58 40 28 52 7e bf bc 54 85 3f 52 b7 54 c0
       3.382297 -0.9934411 1.0416484 -3.323689
000370 a1 7c 7a bf 34 26 74 40 db a4 dc bf ec 9f 43 bf
       -0.9784642 3.8148317 -1.723781 -0.76415896
000380 d7 c1 bd bf 10 95 dd bd e5 cb e8 bf 6c ac 35 40
       -1.482478 -0.10819447 -1.8187224 2.8386488
000390 b3 57 1a 40 ef e1 17 bf 1e 2d 62 c0 50 90 ea 3e
       2.4116027 -0.5932912 -3.5340037 0.45813227
0003a0 ad e5 06 40 18 ea 80 40 ae d3 51 c0 df c6 4d c0
       2.1077683 4.028576 -3.278545 -3.2152631
0003b0 e2 c5 1b c0 ac 23 28 3e a1 50 25 c0 78 26 01 c0
       -2.4339528 0.16419858 -2.5830462 -2.017973
0003c0 8b 16 8b bf 8f f2 60 40 ce bc 3a c0 64 3c 2c bf
       -1.0866255 3.5148046 -2.9177737 -0.6727965
0003d0 04 a9 12 40 3d 8d f9 be 56 d1 a0 40 92 55 02 c0
       2.291566 -0.4874057 5.0255537 -2.0364728
0003e0 47 cc ed bf 3e 77 4a bf 18 2a 93 3e ae 0f 55 c0
       -1.8577965 -0.790882 0.28743052 -3.329082
0003f0 7d 6f ed 3f 8d bb 7d bf 2d 16 a0 bf 58 c6 06 c0
       1.8549649 -0.99114305 -1.2506768 -2.105856

sequential/dense_3/MatMul;sequential/dense_3/BiasAdd f4 [36]
000000 07 07 0a 40 1e 91 ed 3f 39 52 19 40 58 d9 f2 40
       2.156679 1.8559911 2.3956435 7.589031
000010 9c 57 20 be 20 25 50 bc 09 0c 24 40 9f cf 35 40
       -0.1565842 -0.012704164 2.5632346 2.8407972
000020 b1 f0 13 3f 18 c2 98 3e e9 da 1c 41 47 94 c2 bf
       0.5778914 0.29835582 9.803445 -1.5201501
000030 ef cf d9 bf 29 94 01 40 9a 9d af 3f e5 ff e0 3f
       -1.7016581 2.024668 1.3719971 1.7578093
000040 7c dd 05 40 fc c6 e2 40 66 c6 55 40 08 7c c6 40
       2.0916433 7.08679 3.3402343 6.2026405
000050 5c 5f c7 40 a1 04 aa 40 89 f6 ac 3f 64 0f 38 40
       6.2303905 5.313065 1.3512737 2.8759394
000060 7c df d3 bf 08 17 ee 3f 8c 60 9a c0 24 87 2c c0
       -1.6552577 1.8600779 -4.8242855 -2.6957483
000070 57 e2 78 c0 20 25 88 c0 5a 5d 3a c0 86 9c 16 c0
       -3.8888147 -4.254532 -2.9119477 -2.3533034
000080 26 de 3d c0 3c bd 88 c0 08 25 53 c0 be e1 89 c0
       -2.9666839 -4.2731 -3.2991352 -4.3088064

sequential/batch_normalization_1/batchnorm/mul_1;sequential/batch_normalization_1/batchnorm/add_1;sequential/dense_2/MatMul;sequential/dense_2/Relu;sequential/dense_2/BiasAdd f4 [16, 32]
000000 f6 f0 00 be 57 b1 66 be 27 96 64 bc 97 b1 15 be
       -0.1259192 -0.22528587 -0.013951815 -0.14618526
000010 48 8c ec be a2 73 fb bc 39 b6 80 3e cc 02 4a be
       -0.46200776 -0.030694786 0.25139025 -0.1972763
000020 49 79 82 3e 8a 9e 30 3e 23 7c ce 3c 22 4f 90 3c
       0.25483158 0.17247978 0.025205677 0.017615858
000030 93 3d 98 3e fb d7 44 bd ef 54 10 bd a3 ff 85 3e
       0.29734477 -0.048057538 -0.03523725 0.26171598
000040 1f 92 8f 3e 01 e9 bf 3d 05 d2 75 3e 0b eb 0e be
       0.2804117 0.09370614 0.24005897 -0.1395685
000050 d1 0d a3 be e4 4e b8 3e 69 f9 c1 3d 43 b6 9a be
       -0.3184648 0.3599769 0.09471399 -0.3021718
000060 58 a5 f0 bd 06 de 70 bd ef 6c fd 3c 1f 0d 93 be
       -0.11750287 -0.058805488 0.030935733 -0.28720948
000070 01 4a e4 3c 29 a5 1f be 3c 92 5d be 5b db e0 3c
       0.027867319 -0.15590347 -0.21637815 0.027448347
000080 02 e9 f4 3e 7c 48 de 3d 16 1f 41 bd 4a 51 93 3c
       0.4783402 0.10853669 -0.047148786 0.017983098
000090 81 1d a4 be 39 2d 00 3e 77 9b bd be b4 60 31 bd
       -0.3205376 0.12517251 -0.37032673 -0.043305114
0000a0 02 74 8e 3e 37 38 25 bd e8 f9 07 3c c6 14 42 3e
       0.27822882 -0.040336814 0.008299328 0.18953237
0000b0 1e b0 59 3e 2b 3c 34 3e 9c 83 bc 3d 48 f1 31 be
       0.2125859 0.17601077 0.0920479 -0.17377198
0000c0 be 10 3c 3e 1b d7 d6 be 21 76 d7 be 2d da da bd
       0.18365762 -0.41960987 -0.42082313 -0.10686145
0000d0 8d be d4 3e cd fe 8f bc 72 b3 0c 3e e6 c9 1b 3e
       0.4155163 -0.017577553 0.13740328 0.15213737
0000e0 02 86 cc bd 2d de a0 3d b5 1c b9 3c e1 ed 23 be
       -0.099864975 0.07854877 0.022596696 -0.16008712
0000f0 c8 31 0b bd 27 2b a6 3c 40 32 b8 bd fc bc 4c 3e
       -0.033983022 0.020284249 -0.089939594 0.19993967
000100 6c fd a8 bb 77 85 0a 3e fb e7 8b 3e 31 0d 64 3d
       -0.0051571634 0.13527475 0.27325425 0.055676643
000110 8c 88 d2 3c be b0 7b bd 4d 25 41 be e9 ad 0c be
       0.025699876 -0.06144785 -0.18861885 -0.13738216
000120 d2 13 14 be 55 38 24 bd ff 77 4e be bc 37 12 be
       -0.14460686 -0.040092785 -0.20162962 -0.14279073
000130 49 95 2e be f8 eb 04 3e 85 22 21 3e cd 4c 98 3d
       -0.17049135 0.1298064 0.15735824 0.074365236
000140 bf 8f 46 3e a6 37 e5 3d 01 a9 2c 3e 02 96 07 be
       0.19390772 0.11192255 0.16861345 -0.13240817
000150 d7 2c 1b bd bd 57 ab be 1d 05 10 be 65 6a 44 be
       -0.03788456 -0.33465376 -0.1406445 -0.19181211
000160 d4 3b 3c 3d af 87 84 3e 49 e5 8a be 4f e5 be 3e
       0.045955494 0.25884768 -0.27128056 0.37284324
000170 15 68 c5 bd 33 32 33 bf b5 a4 8b be d0 12 f5 bc
       -0.09638993 -0.6999847 -0.272741 -0.029916197
000180 1a 6c 3b 3e 84 e9 44 be 70 48 de 3d f3 c2 ee 3c
       0.18302956 -0.19229704 0.1085366 0.029145693
000190 8b de 9a be 67 a0 92 bd 9e 68 6b 3e 42 65 bb bd
       -0.30247912 -0.071595006 0.22989127 -0.09150173
0001a0 f9 86 13 be 19 a6 0c be 29 da 23 be 11 5b e6 be
       -0.14406957 -0.13735236 -0.1600119 -0.44991353
0001b0 56 a4 e4 3d 76 59 3a 3e 48 09 77 3d f8 42 15 3c
       0.11164157 0.18198189 0.060311586 0.009110205
0001c0 71 ab 4c 3d 2e b0 23 3e 88 38 48 bd b6 13 50 3e
       0.049968187 0.15985176 -0.048882037 0.20320019
0001d0 cc 38 54 3e 9c e1 f1 3d 56 76 30 3e 84 ac 25 3e
       0.20724791 0.1181061 0.17232642 0.1617909
0001e0 32 92 4c 3e dc 10 45 3d d0 64 87 3e 0c b0 4c 3e
       0.19977644 0.04811178 0.264441 0.19989032
0001f0 61 57 11 3e 23 70 5b be 44 b2 a0 bc 80 d5 41 be
       0.14193489 -0.21429496 -0.019616254 -0.189291
000200 df ea 31 bd 26 fe a3 bc 17 84 1b 3e 08 5b 8c be
       -0.04343688 -0.020018648 0.15187107 -0.274132
000210 b3 b7 04 bc d8 7c e4 3d 1b 41 94 bd 67 67 73 3e
       -0.008100438 0.111566246 -0.072389804 0.23769914
000220 45 73 d1 3e 87 8e ef 3c 78 92 b5 3e 7a ff da 3d
       0.40908256 0.029242767 0.3546331 0.106932595
000230 43 4f 23 be 3a 66 2f 3e 40 71 83 bd ca 18 a7 bd
       -0.15948205 0.1712884 -0.06418085 -0.08159025
000240 1e 30 1d bc 6d ba bf be a9 5a 34 bd 98 36 5a be
       -0.009593992 -0.3744692 -0.044031773 -0.21309888
000250 08 8d 1d be c9 b0 56 3c da a7 93 3a e0 49 e3 3d
       -0.1538583 0.013103672 0.0011265234 0.11098075
000260 cb 81 00 bd 2c 5d 9a be 44 e9 61 3e 1b 32 aa 3e
       -0.03137378 -0.3014921 0.2206164 0.33241352
000270 6d 78 32 bd 1a ef 65 be cc d5 2e be 98 22 25 3e
       -0.04357188 -0.22454491 -0.17073745 0.16126478
000280 4f b9 4f be c3 15 d7 3d 7a 88 c1 bb ee f2 10 be
       -0.20285533 0.105021976 -0.005906162 -0.1415517
000290 41 69 5c be d2 e5 a3 bd 28 ec d3 3d cb e9 b3 3d
       -0.21524526 -0.08002819 0.103477776 0.08784827
0002a0 f6 19 4a be c2 65 eb bd 68 92 9b 3c 09 da 84 3c
       -0.19736466 -0.11494018 0.01899071 0.016217249
0002b0 c8 32 6c 3d 24 b1 f2 bd ff 11 06 3d 64 9c 8f 3d
       0.057665616 -0.11850193 0.032732006 0.07012251
0002c0 73 52 0c be 76 3b d6 be e7 00 7a bc 28 91 04 3d
       -0.13703327 -0.4184224 -0.015259004 0.032364994
0002d0 7a 81 1a be 58 d6 8a be 25 f2 15 3e 41 7f f9 be
       -0.15088454 -0.27116656 0.14643152 -0.487299
0002e0 3d 86 3d 3e 6f 69 86 3e 27 43 4c bc 63 13 ad 3d
       0.18508239 0.26252314 -0.012467182 0.08450963
0002f0 db da 2d bd 1c 4d e3 bd c2 ff 0e 3e 78 5f f7 3e
       -0.042445045 -0.11098692 0.13964751 0.48315024
000300 c7 ac 12 3e ce 93 85 bc df 9a 41 be 26 76 6c be
       0.14323722 -0.01630583 -0.18906735 -0.23091945
000310 75 9f 72 3e 64 60 b1 be 03 6b 35 bc 46 ac 8f 3e
       0.2369364 -0.34643853 -0.011072877 0.28061122
000320 b1 13 2d 3e 97 39 1f bc 24 c9 88 3d 9e da 84 be
       0.16902043 -0.00971832 0.066789895 -0.25948042
000330 3f 93 35 be 91 41 00 3f 98 1e 00 bd 79 44 36 bc
       -0.17731951 0.50100046 -0.031279176 -0.011124724
000340 18 54 a0 3c f0 63 4a 3e ba ae 9d bd db 08 58 be
       0.019571349 0.19764686 -0.07699342 -0.21097128
000350 52 c8 74 be 71 50 9c be 53 d6 c0 bd 5a 11 2f bd
       -0.23904541 -0.30530122 -0.09415879 -0.042741157
000360 57 fe 83 3c d7 6e af bb c2 28 9c bd c0 4d 65 3d
       0.01611249 -0.0053537893 -0.076249614 0.05598235
000370 b5 d2 31 be 9f c1 3d be 56 63 e2 be 2d c4 dc 3d
       -0.17365535 -0.18530892 -0.44216412 0.10779605
000380 87 8c 3c 3e ef ad 70 3d c6 60 03 3e 48 89 a9 be
       0.18412982 0.058759626 0.12829885 -0.3311255
000390 34 08 bc be ef 16 dc bc c3 c0 11 bd 0e 3f 69 3d
       -0.36725008 -0.026866404 -0.035584223 0.0569449
0003a0 13 38 c8 bd b8 7c b2 3e 7e e1 a5 be cb ef 60 3d
       -0.0977632 0.34860778 -0.323986 0.054916184
0003b0 ec 53 4e 3e 5f fc 71 3e 06 4b 33 3e 78 e2 ac 3e
       0.20149201 0.23631428 0.17509088 0.33766532
0003c0 b1 b7 d8 bd ad 1d 66 3d 16 55 37 be e7 10 90 bd
       -0.10581911 0.056180645 -0.17903551 -0.07034474
0003d0 f0 80 d1 be c2 cb 08 bd 71 79 27 be f9 47 fe 3c
       -0.40918684 -0.033397444 -0.1635492 0.031040179
0003e0 4e cf 52 3d c3 26 2f be 1b f6 c0 3c 4e 61 5a 3e
       0.051467232 -0.1710463 0.023554852 0.21326181
0003f0 0f 80 67 be b4 9e b9 3e 74 7c ca 3d 4a 21 ed 3d
       -0.22607444 0.36253893 0.09887019 0.11578615

sequential/dense_2/MatMul;sequential/dense_2/Relu;sequential/dense_2/BiasAdd f4 [16]
000000 42 d2 65 3e fd ee b6 3e c8 f6 16 3f a6 15 fa 3d
       0.22443488 0.3572921 0.5897031 0.1221116
000010 84 72 9c 3e a7 cd b5 3e f6 23 ea 3e e0 5a 61 3e
       0.30556118 0.35508463 0.4573056 0.22007322
000020 e9 f2 cf 3e 4c 01 17 3f 93 3a 78 3e 6c 01 dc 3e
       0.40615013 0.58986354 0.24241094 0.42969835
000030 8c 1b 59 3e 1a a1 e2 3e 87 0f 44 3f 5d 74 a0 3e
       0.21201915 0.44263536 0.7658619 0.31338778

sequential/dense_1/MatMul;sequential/dense_1/Relu;sequential/dense_1/BiasAdd f4 [32]
000000 c2 a1 36 3f de e3 39 bf 7e 7a d9 3d 49 6d d1 be
       0.7134057 -0.7261332 0.10619067 -0.4090369
000010 dd 60 2f 3f 80 31 35 3f 89 ff ab 3e d5 cf 9b be
       0.68507177 0.70778656 0.33593395 -0.30432
000020 5b 5b 9a 3e 75 4b cd bd 15 ee 15 3f c2 26 36 3e
       0.30147824 -0.10024158 0.5856641 0.17788222
000030 aa 9e 49 3e 58 7b b5 be 47 41 2a bf a0 d7 17 be
       0.19689432 -0.35445666 -0.66505855 -0.14828348
000040 d5 cd 98 be fb dc fd 3e 3f 13 f8 be b0 75 55 bf
       -0.29844537 0.49582657 -0.48452184 -0.833827
000050 78 ce 21 be 1b 3b e6 be c9 77 c8 3e 7c 87 66 be
       -0.15801418 -0.4496697 0.3915389 -0.2251262
000060 07 65 b6 3e fd 3f 30 bf 4d 8b f9 bd 6a 35 e9 3d
       0.35623953 -0.6884764 -0.12184773 0.11387141
000070 93 b8 04 bf 77 eb 39 3f d8 2c 1f bf df 77 f1 3d
       -0.5184414 0.72624916 -0.621778 0.11790442

sequential/batch_normalization/batchnorm/mul_1;sequential/batch_normalization/batchnorm/add_1;sequential/dense_1/MatMul;sequential/dense_1/Relu;sequential/dense_1/BiasAdd i1 [32, 64] scale=0.032592177 zero_point=0
000000 03 f2 eb f6 5e 00 3d fc fb 08 f7 fa 07 f2 04 d1
       0.09777653 -0.45629048 -0.6844357 -0.32592177 3.0636647 0.0 1.9881228 -0.13036871 -0.16296089 0.26073742 -0.2933296 -0.19555306 0.22814524 -0.45629048 0.13036871 -1.5318323
000010 ee f7 fa 05 f0 fc 35 f8 ec 2f 09 e8 19 08 e9 fa
       -0.5866592 -0.2933296 -0.19555306 0.16296089 -0.52147484 -0.13036871 1.7273854 -0.26073742 -0.65184355 1.5318323 0.2933296 -0.78221226 0.81480443 0.26073742 -0.7496201 -0.19555306
000020 02 06 06 17 fb 01 f5 03 fc f9 fb 2c f8 fe 0b fb
       0.065184355 0.19555306 0.19555306 0.7496201 -0.16296089 0.032592177 -0.35851395 0.09777653 -0.13036871 -0.22814524 -0.16296089 1.4340558 -0.26073742 -0.065184355 0.35851395 -0.16296089
000030 f9 06 f1 03 03 f1 09 f1 01 e6 fe fc 1c f7 f0 e1
       -0.22814524 0.19555306 -0.48888266 0.09777653 0.09777653 -0.48888266 0.2933296 -0.48888266 0.032592177 -0.8473966 -0.065184355 -0.13036871 0.91258097 -0.2933296 -0.52147484 -1.0103575
000040 00 16 2e 15 c6 00 b8 0b 14 e7 04 06 0c f5 04 1b
       0.0 0.7170279 1.4992402 0.6844357 -1.8903463 0.0 -2.3466368 0.35851395 0.65184355 -0.81480443 0.13036871 0.19555306 0.39110613 -0.35851395 0.13036871 0.8799888
000050 0e 12 03 f4 29 10 eb 0b fc ce f7 20 e1 fe 1a f0
       0.45629048 0.5866592 0.09777653 -0.39110613 1.3362793 0.52147484 -0.6844357 0.35851395 -0.13036871 -1.6296089 -0.2933296 1.0429497 -1.0103575 -0.065184355 0.8473966 -0.52147484
000060 00 f9 0c d0 05 06 06 e3 fe f8 02 da f6 05 fe fa
       0.0 -0.22814524 0.39110613 -1.5644245 0.16296089 0.19555306 0.19555306 -0.94517314 -0.065184355 -0.26073742 0.065184355 -1.2385027 -0.32592177 0.16296089 -0.065184355 -0.19555306
000070 f4 e5 fd 02 fc 08 0d 04 10 30 09 01 ff 08 04 f7
       -0.39110613 -0.8799888 -0.09777653 0.065184355 -0.13036871 0.26073742 0.4236983 0.13036871 0.52147484 1.5644245 0.2933296 0.032592177 -0.032592177 0.26073742 0.13036871 -0.2933296
000080 fc fa 02 04 19 f8 1a 0f ff fe f9 eb 09 fa 0a 0f
       -0.13036871 -0.19555306 0.065184355 0.13036871 0.81480443 -0.26073742 0.8473966 0.48888266 -0.032592177 -0.065184355 -0.22814524 -0.6844357 0.2933296 -0.19555306 0.32592177 0.48888266
000090 01 0c 27 fd f9 28 eb 10 ef 04 04 e3 fd 09 08 ef
       0.032592177 0.39110613 1.2710949 -0.09777653 -0.22814524 1.3036871 -0.6844357 0.52147484 -0.554067 0.13036871 0.13036871 -0.94517314 -0.09777653 0.2933296 0.26073742 -0.554067
0000a0 05 0b 16 12 13 f2 e9 e1 f6 ee fa 0c f1 fe 0a 0c
       0.16296089 0.35851395 0.7170279 0.5866592 0.6192514 -0.45629048 -0.7496201 -1.0103575 -0.32592177 -0.5866592 -0.19555306 0.39110613 -0.48888266 -0.065184355 0.32592177 0.39110613
0000b0 ec 12 00 fd 05 0d f8 f6 f8 21 fd fc 00 eb 0e f7
       -0.65184355 0.5866592 0.0 -0.09777653 0.16296089 0.4236983 -0.26073742 -0.32592177 -0.26073742 1.0755419 -0.09777653 -0.13036871 0.0 -0.6844357 0.45629048 -0.2933296
0000c0 0b fd e7 fc 4a 02 25 03 0b 13 0b f1 09 f2 0b f1
       0.35851395 -0.09777653 -0.81480443 -0.13036871 2.4118211 0.065184355 1.2059106 0.09777653 0.35851395 0.6192514 0.35851395 -0.48888266 0.2933296 -0.45629048 0.35851395 -0.48888266
0000d0 1b 0b 0c 0c f5 23 fb 16 f5 e5 06 26 11 18 f3 0e
       0.8799888 0.35851395 0.39110613 0.39110613 -0.35851395 1.1407262 -0.16296089 0.7170279 -0.35851395 -0.8799888 0.19555306 1.2385027 0.554067 0.78221226 -0.4236983 0.45629048
0000e0 0a 10 14 2a 00 fa 2a 13 07 f0 12 09 07 fd ee 06
       0.32592177 0.52147484 0.65184355 1.3688715 0.0 -0.19555306 1.3688715 0.6192514 0.22814524 -0.52147484 0.5866592 0.2933296 0.22814524 -0.09777653 -0.5866592 0.19555306
0000f0 0b 14 1b 06 e6 0a 03 f1 fb 34 01 0d 07 06 18 f4
       0.35851395 0.65184355 0.8799888 0.19555306 -0.8473966 0.32592177 0.09777653 -0.48888266 -0.16296089 1.6947932 0.032592177 0.4236983 0.22814524 0.19555306 0.78221226 -0.39110613

sequential/dense/MatMul i1 [64, 42] scale=0.003025519 zero_point=0
000000 00 00 ff f0 03 f4 02 f7 f6 fd 04 fc fa fe fc ff
       0.0 0.0 -0.003025519 -0.048408303 0.009076557 -0.03630623 0.006051038 -0.02722967 -0.03025519 -0.009076557 0.012102076 -0.012102076 -0.018153114 -0.006051038 -0.012102076 -0.003025519
000010 00 01 fd fb f6 02 f1 01 f4 fa fb 04 f2 07 ed 07
       0.0 0.003025519 -0.009076557 -0.015127595 -0.03025519 0.006051038 -0.045382783 0.003025519 -0.03630623 -0.018153114 -0.015127595 0.012102076 -0.042357266 0.021178633 -0.05748486 0.021178633
000020 e7 00 f1 0f f0 09 fc 04 e9 03 00 00 03 db fa cf
       -0.075637974 0.0 -0.045382783 0.045382783 -0.048408303 0.02722967 -0.012102076 0.012102076 -0.06958693 0.009076557 0.0 0.0 0.009076557 -0.1119442 -0.018153114 -0.14825043
000030 f0 de 0f e0 04 f4 05 fe 04 0a 08 0d 08 f4 fe 00
       -0.048408303 -0.10286765 0.045382783 -0.09681661 0.012102076 -0.03630623 0.015127595 -0.006051038 0.012102076 0.03025519 0.024204152 0.039331745 0.024204152 -0.03630623 -0.006051038 0.0
000040 f9 02 f5 fc 08 f0 0f 01 01 04 fd 07 03 f7 00 f1
       -0.021178633 0.006051038 -0.033280708 -0.012102076 0.024204152 -0.048408303 0.045382783 0.003025519 0.003025519 0.012102076 -0.009076557 0.021178633 0.009076557 -0.02722967 0.0 -0.045382783
000050 f8 fe f3 f8 00 00 08 b5 05 d1 05 d1 0a de 00 06
       -0.024204152 -0.006051038 -0.039331745 -0.024204152 0.0 0.0 0.024204152 -0.22691393 0.015127595 -0.1421994 0.015127595 -0.1421994 0.03025519 -0.10286765 0.0 0.018153114
000060 05 05 fa 02 fe 01 04 09 02 02 fa fa fa 03 0c 09
       0.015127595 0.015127595 -0.018153114 0.006051038 -0.006051038 0.003025519 0.012102076 0.02722967 0.006051038 0.006051038 -0.018153114 -0.018153114 -0.018153114 0.009076557 0.03630623 0.02722967
000070 03 00 fc ff fa fe 01 04 00 fe fa 00 03 fc 00 00
       0.009076557 0.0 -0.012102076 -0.003025519 -0.018153114 -0.006051038 0.003025519 0.012102076 0.0 -0.006051038 -0.018153114 0.0 0.009076557 -0.012102076 0.0 0.0
000080 e9 0d ed 03 f1 fb fe f8 e0 06 ec 02 f6 05 fa 04
       -0.06958693 0.039331745 -0.05748486 0.009076557 -0.045382783 -0.015127595 -0.006051038 -0.024204152 -0.09681661 0.018153114 -0.06051038 0.006051038 -0.03025519 0.015127595 -0.018153114 0.012102076
000090 ec fe e8 fe 00 01 03 fd f9 01 f9 ff fe fe 0c 03
       -0.06051038 -0.006051038 -0.07261246 -0.006051038 0.0 0.003025519 0.009076557 -0.009076557 -0.021178633 0.003025519 -0.021178633 -0.003025519 -0.006051038 -0.006051038 0.03630623 0.009076557
0000a0 12 ff 14 fc 18 04 30 04 00 00 fb 02 05 04 fe 0d
       0.05445934 -0.003025519 0.06051038 -0.012102076 0.07261246 0.012102076 0.14522491 0.012102076 0.0 0.0 -0.015127595 0.006051038 0.015127595 0.012102076 -0.006051038 0.039331745
0000b0 ff 0d 06 01 00 00 ff fd ff 01 06 01 00 fd 01 fc
       -0.003025519 0.039331745 0.018153114 0.003025519 0.0 0.0 -0.003025519 -0.009076557 -0.003025519 0.003025519 0.018153114 0.003025519 0.0 -0.009076557 0.003025519 -0.012102076
0000c0 b3 06 ff 01 04 00 03 fc fe 04 01 05 03 00 02 fa
       -0.23296496 0.018153114 -0.003025519 0.003025519 0.012102076 0.0 0.009076557 -0.012102076 -0.006051038 0.012102076 0.003025519 0.015127595 0.009076557 0.0 0.006051038 -0.018153114
0000d0 00 01 00 00 e1 fc e4 ea f3 ec eb f0 ea f3 f5 04
       0.0 0.003025519 0.0 0.0 -0.09379109 -0.012102076 -0.08471453 -0.066561416 -0.039331745 -0.06051038 -0.0635359 -0.048408303 -0.066561416 -0.039331745 -0.033280708 0.012102076
0000e0 f4 08 f3 0a f4 f9 ed 06 f0 0b fc 07 05 fa f8 05
       -0.03630623 0.024204152 -0.039331745 0.03025519 -0.03630623 -0.021178633 -0.05748486 0.018153114 -0.048408303 0.033280708 -0.012102076 0.021178633 0.015127595 -0.018153114 -0.024204152 0.015127595
0000f0 02 10 ff 0d 1f 09 0c 01 16 10 0f 07 00 00 ff fd
       0.006051038 0.048408303 -0.003025519 0.039331745 0.09379109 0.02722967 0.03630623 0.003025519 0.066561416 0.048408303 0.045382783 0.021178633 0.0 0.0 -0.003025519 -0.009076557
